…
[1. 1. 1. ... 4. 4. 4.] (5121,)
2022-12-07 18:52:58.986274: I tensorflow/core/platform/cpu_feature_guard.cc:193] This TensorFlow binary is optimized with oneAPI Deep Neural Network Library (oneDNN) to use the following CPU instructions in performance-critical operations:  AVX AVX2
To enable them in other operations, rebuild TensorFlow with the appropriate compiler flags.
Model: "sequential"
_________________________________________________________________
 Layer (type)                Output Shape              Param #
=================================================================
 conv2d (Conv2D)             (None, 206, 174, 32)      320

 max_pooling2d (MaxPooling2D  (None, 103, 87, 32)      0
 )

 conv2d_1 (Conv2D)           (None, 101, 85, 64)       18496

 max_pooling2d_1 (MaxPooling  (None, 50, 42, 64)       0
 2D)

 conv2d_2 (Conv2D)           (None, 48, 40, 64)        36928

=================================================================
Total params: 55,744
Trainable params: 55,744
Non-trainable params: 0
_________________________________________________________________
Model: "sequential"
_________________________________________________________________
 Layer (type)                Output Shape              Param #
=================================================================
 conv2d (Conv2D)             (None, 206, 174, 32)      320

 max_pooling2d (MaxPooling2D  (None, 103, 87, 32)      0
 )

 conv2d_1 (Conv2D)           (None, 101, 85, 64)       18496

 max_pooling2d_1 (MaxPooling  (None, 50, 42, 64)       0
 2D)

 conv2d_2 (Conv2D)           (None, 48, 40, 64)        36928

 flatten (Flatten)           (None, 122880)            0

 dense (Dense)               (None, 64)                7864384

 dense_1 (Dense)             (None, 10)                650

=================================================================
Total params: 7,920,778
Trainable params: 7,920,778
Non-trainable params: 0
_________________________________________________________________
Epoch 1/10
161/161 [==============================] - 105s 647ms/step - loss: 1.0343 - accuracy: 0.5343 - val_loss: 0.9869 - val_accuracy: 0.5285
Epoch 2/10
161/161 [==============================] - 101s 630ms/step - loss: 0.6077 - accuracy: 0.7374 - val_loss: 1.1538 - val_accuracy: 0.4957
…
