…
arning_cnn.py
2022-12-12 00:28:54.901851: I tensorflow/core/platform/cpu_feature_guard.cc:193] This TensorFlow binary is optimized with oneAPI Deep Neural Network Library (oneDNN) to use the following CPU instructions in performance-critical operations:  AVX AVX2
To enable them in other operations, rebuild TensorFlow with the appropriate compiler flags.
Model: "sequential"
_________________________________________________________________
 Layer (type)                Output Shape              Param #
=================================================================
 conv2d (Conv2D)             (None, 206, 174, 192)     1920

 max_pooling2d (MaxPooling2D  (None, 103, 87, 192)     0
 )

 conv2d_1 (Conv2D)           (None, 101, 85, 128)      221312

 max_pooling2d_1 (MaxPooling  (None, 50, 42, 128)      0
 2D)

 conv2d_2 (Conv2D)           (None, 48, 40, 64)        73792

 flatten (Flatten)           (None, 122880)            0

 dense (Dense)               (None, 64)                7864384

 dense_1 (Dense)             (None, 4)                 260

=================================================================
Total params: 8,161,668
Trainable params: 8,161,668
Non-trainable params: 0
_________________________________________________________________
Epoch 1/10
256/256 [==============================] - 248s 967ms/step - loss: 1.0492 - accuracy: 0.4754 - val_loss: 1.0462 - val_accuracy: 0.4999
Epoch 2/10
256/256 [==============================] - 237s 926ms/step - loss: 0.9853 - accuracy: 0.5137 - val_loss: 1.0554 - val_accuracy: 0.5007
…
